…
   Validation set     : 0 conformations
   Test set           : 0 conformations
   Number of channels : 24
   Grid Size          : 35, 30, 30
/home/dmarz/anaconda3/envs/3dvac_test/lib/python3.10/site-packages/torch/nn/modules/container.py:204: UserWarning: Implicit dimension choice for softmax has been deprecated. Change the call to include dim=X as an argument.
  input = module(input)
----------------------------------------------------------------
        Layer (type)               Output Shape         Param #
================================================================
       BatchNorm3d-1       [-1, 24, 35, 30, 30]              48
            Conv3d-2       [-1, 24, 35, 30, 30]             600
       BatchNorm3d-3       [-1, 24, 35, 30, 30]              48
              ReLU-4       [-1, 24, 35, 30, 30]               0
            Conv3d-5       [-1, 24, 33, 28, 28]             672
       BatchNorm3d-6       [-1, 24, 33, 28, 28]              48
              ReLU-7       [-1, 24, 33, 28, 28]               0
            Conv3d-8       [-1, 24, 31, 26, 26]           1,320
       BatchNorm3d-9       [-1, 24, 31, 26, 26]              48
        MaxPool3d-10       [-1, 24, 15, 13, 13]               0
             ReLU-11       [-1, 24, 15, 13, 13]               0
           Conv3d-12       [-1, 48, 13, 11, 11]          31,152
      BatchNorm3d-13       [-1, 48, 13, 11, 11]              96
        MaxPool3d-14          [-1, 48, 6, 5, 5]               0
             ReLU-15          [-1, 48, 6, 5, 5]               0
          Flatten-16                 [-1, 7200]               0
      BatchNorm1d-17                 [-1, 7200]          14,400
           Linear-18                  [-1, 128]         921,728
             ReLU-19                  [-1, 128]               0
          Dropout-20                  [-1, 128]               0
           Linear-21                  [-1, 128]          16,512
             ReLU-22                  [-1, 128]               0
          Dropout-23                  [-1, 128]               0
           Linear-24                    [-1, 2]             258
          Softmax-25                    [-1, 2]               0
================================================================
Total params: 986,930
Trainable params: 986,930
Non-trainable params: 0
----------------------------------------------------------------
Input size (MB): 2.88
Forward/backward pass size (MB): 47.26
Params size (MB): 3.76
Estimated Total Size (MB): 53.91
----------------------------------------------------------------
Optimizer: sgd with learn rate: 0.001
…
