…
Number of samples for training, validation and test for the 10 folds:
Fold 0: 70156, 20045, 10005
Fold 1: 70156, 20045, 10005
Fold 2: 70156, 20045, 10005
Fold 3: 70156, 20045, 10005
Fold 4: 70156, 20045, 10005
Fold 5: 70156, 20045, 10005
Fold 6: 70156, 20045, 10005
Fold 7: 70156, 20045, 10005
Fold 8: 70156, 20045, 10005
Fold 9: 70156, 20045, 10005
10 datasets created, models loaded, starting training using this architecture:
----------------------------------------------------------------
        Layer (type)               Output Shape         Param #
================================================================
           Flatten-1                 [-1, 1722]               0
       BatchNorm1d-2                 [-1, 1722]           3,444
            Linear-3                  [-1, 500]         861,500
              ReLU-4                  [-1, 500]               0
           Dropout-5                  [-1, 500]               0
            Linear-6                  [-1, 500]         250,500
              ReLU-7                  [-1, 500]               0
           Dropout-8                  [-1, 500]               0
            Linear-9                  [-1, 500]         250,500
             ReLU-10                  [-1, 500]               0
          Dropout-11                  [-1, 500]               0
           Linear-12                    [-1, 1]             501
================================================================
Total params: 1,366,445
Trainable params: 1,366,445
Non-trainable params: 0
----------------------------------------------------------------
Input size (MB): 0.01
Forward/backward pass size (MB): 0.06
Params size (MB): 5.21
Estimated Total Size (MB): 5.28
----------------------------------------------------------------
Training on 1 finished. Time for training: 21.118428945541382 minutes
…
